backend/demo-machine-learning/Regression/neural_net_regressor.pth (torch, 5663 bytes, 3 tensors)

fc1.weight f4 [64, 10]
0.0029233706 -0.023209445 0.22748268 -0.23017207 -0.14335491 0.2803665 -0.030543333 -0.2523572
0.08521316 -0.15507899 0.33782893 0.11364492 0.071988545 0.21367984 0.20279932 0.11886037
0.18004714 -0.058658246 -0.13556811 0.34568495 0.20407459 -0.1255377 -0.04985538 -0.23176047
-0.24329898 -0.19218183 -0.15271416 -0.31150877 0.047167122 0.0055721104 0.36813712 -0.13369702
-0.10198878 0.29084304 -0.141725 0.14712675 0.3582674 -0.18803988 -0.07907152 0.29910958
0.08043602 -0.31372762 0.11253667 -0.25342327 -0.13021235 0.12692559 -0.31566066 0.029821217
-0.2675125 -0.2809522 -0.14443856 0.30778107 0.21799451 0.14408733 0.28166497 -0.26479796
-0.057774 0.34153754 0.056631275 0.30742165 0.2850873 -0.1818208 -0.061412077 -0.23373105
0.12261475 -0.09406763 -0.26936534 0.045967318 -0.015081996 -0.26886466 -0.26680294 0.16266415
0.25088894 -0.02054912 0.18624018 -0.20255218 0.019105548 -0.3150349 0.25806728 0.16636601
-0.057060186 0.2865531 0.28219876 0.14324555 0.059815124 -0.10360042 0.17966266 0.26537308
0.12255765 0.14271384 -0.06742431 0.20337848 0.20699668 -0.015901987 0.26256332 -0.030074213
-0.13368377 0.12058925 0.2433988 -0.09950652 0.31895664 0.19071923 0.004502354 0.18079934
-0.2335932 -0.16215988 0.13801081 0.09234553 -0.046211757 -0.1324837 -0.064253114 0.17665619
-0.21202101 0.36301395 0.06778793 -0.19742669 0.011923406 0.101207696 0.09214069 0.19867966
0.0140448995 -0.12675263 0.2221529 0.25053126 -0.18931839 -0.24614123 0.050295863 -0.021089558
0.29481182 0.029161194 -0.24033205 -0.010353687 0.016920397 -0.17826928 -0.03666762 -0.10373742
0.31018108 0.24951912 0.017415812 0.29116893 -0.04680772 0.12647618 0.23953576 0.16001697
-0.30134246 0.112284236 0.21451794 -0.06586971 0.097753845 -0.01501962 -0.22090182 -0.17601864
0.34772554 0.14629817 -0.22353184 0.27551362 0.08336447 0.34545758 -0.16673292 0.13353607
0.32003692 -0.117739834 -0.10077226 -0.24218364 0.16534998 0.23121561 -0.15288842 0.07758386
-0.013341963 -0.10316081 0.2482254 -0.290711 -0.32922933 0.082076 -0.18364264 -0.0452291
-0.23810934 -0.14215195 0.039003335 0.05344223 0.14225684 -0.1291224 0.13051878 0.31669438
0.25607914 0.20212016 0.32201314 0.1971669 -0.1281524 -0.12158046 0.19748823 -0.03626467
-0.13082436 0.15750727 -0.040539455 -0.24608435 0.31036678 -0.1554994 0.35536864 0.13236791
-0.07706694 -0.2984075 0.08910018 -0.13611612 -0.11221668 0.26041552 0.29245237 -0.12084016
-0.27765328 0.16975635 -0.24281105 0.07163815 0.21514684 -0.2560739 0.16859457 0.19010969
0.17452139 0.19897926 0.23586081 -0.20926838 0.27680814 -0.07336403 -0.2261318 0.19087249
0.15979059 0.07551095 0.30395067 0.14325584 -0.020908153 -0.054744583 0.21342404 0.2748754
-0.11937009 0.008918528 -0.08596205 0.07414489 0.14905576 0.08655799 -0.18251824 -0.3166042
-0.22580668 -0.27893993 -0.1801443 -0.13462609 0.058332056 -0.18691348 -0.27269608 0.06813279
0.18821827 -0.24042237 0.039418537 0.043206632 0.024324855 -0.023385404 -0.039225623 0.17783724
00000000: 0596 3f3b bc21 bebc 38f1 683e 3ab2 6bbe
00000010: a1cb 12be 338c 8f3e 0336 fabc f734 81be
00000020: 3d84 ae3d 07cd 1ebe eaf7 ac3e abbe e83d
00000030: bb6e 933d e3ce 5a3e a0aa 4f3e 116d f33d
00000040: 475e 383e a143 70bd 5ed2 0abe 9efd b03e
00000050: eef8 503e f48c 00be 2835 4cbd 9e52 6dbe
00000060: 5e23 79be 50cb 44be 1a61 1cbe 147e 9fbe
00000070: 5032 413d 4096 b63b 787c bc3e dfe7 08be
00000080: 7edf d0bd 61e9 943e 5c20 11be 65a8 163e
00000090: d36e b73e 878d 40be 40f0 a1bd e424 993e
000000a0: a4bb a43d e8a0 a0be a079 e63d b2c0 81be
000000b0: 6356 05be c8f8 013e 469e a1be a04b f43c
000000c0: 66f7 88be f7d8 8fbe b4e7 13be 7b95 9d3e
000000d0: f439 5f3e a18b 133e 6436 903e 9993 87be
000000e0: 6ea4 6cbd 02de ae3e 32f6 673d 5f66 9d3e
000000f0: f6f6 913e 3b2f 3abe 3b8b 7bbd 3157 6fbe
00000100: 711d fb3d 88a6 c0bd 41ea 89be 3a48 3c3d
00000110: 7a1a 77bc a1a8 89be 659a 88be 6e91 263e
00000120: 8474 803e a156 a8bc bfb5 3e3e d769 4fbe
00000130: 3d83 9c3c 414c a1be 6521 843e da5b 2a3e
00000140: f1b7 69bd 17b7 923e 5b7c 903e f6ae 123e
00000150: b400 753d 752c d4bd 7df9 373e fbde 873e
00000160: 81ff fa3d 9423 123e c215 8abd 7342 503e
00000170: f0f6 533e e244 82bc b36e 863e 325e f6bc
00000180: 66e4 08be 7ff7 f63d 893d 793e 13ca cbbd
00000190: 494e a33e e74b 433e 7c88 933b 7623 393e
000001a0: 0e33 6fbe 3d0d 26be b552 0d3e a71f bd3d
000001b0: 8a48 3dbd cfa9 07be 2397 83bd 5ce5 343e
000001c0: 091c 59be f7dc b93e 66d4 8a3d 392a 4abe
000001d0: 645a 433c fb45 cf3d 42b4 bc3d ae72 4b3e
000001e0: 941c 663c 71cb 01be 0d7c 633e a245 803e
000001f0: aedc 41be 720c 7cbe 0903 4e3d 02c4 acbc
00000200: 93f1 963e 75e3 ee3c 9b19 76be 83a2 29bc
00000210: a59c 8a3c 398c 36be c930 16bd 4974 d4bd
00000220: 0ed0 9e3e f181 7f3e 9bab 8e3c 1814 953e
00000230: 74b9 3fbd f982 013e dd48 753e 7ddb 233e
00000240: 8f49 9abe 47f5 e53d 97aa 5b3e b3e6 86bd
00000250: 2b33 c83d da14 76bc 1634 62be 3b3e 34be
00000260: 1509 b23e 30cf 153e 88e5 64be 1f10 8d3e
00000270: feba aa3d d1df b03e 09bc 2abe aebd 083e
00000280: e1db a33e 9521 f1bd b061 cebd fdfe 77be
00000290: 8151 293e c9c3 6c3e c88e 1cbe 49e4 9e3d
000002a0: 4098 5abc fa45 d3bd cd2e 7e3e 12d8 94be
000002b0: bf90 a8be 7617 a83d d10c 3cbe 2642 39bd
000002c0: efd2 73be 4890 11be f6c1 1f3d 3de6 5a3d
000002d0: c7ab 113e aa38 04be b7a6 053e c425 a23e
000002e0: ce1c 833e 96f8 4e3e e8de a43e 1fe6 493e
000002f0: 623a 03be 2dff f8bd 5b3a 4a3e 438a 14bd
00000300: d2f6 05be 9649 213e b30c 26bd 89fd 7bbe
00000310: 65e8 9e3e 3c3b 1fbe e1f2 b53e 748b 073e
00000320: 46d5 9dbd dec8 98be 287a b63d 0662 0bbe
00000330: dcd1 e5bd 2f55 853e 51bc 953e 0c7b f7bd
00000340: 9228 8ebe 9cd4 2d3e 76a3 78be 06b7 923d
00000350: 744f 5c3e 1e1c 83be 0ea4 2c3e 1dac 423e
00000360: bcb5 323e 38c1 4b3e 7f85 713e 734a 56be
00000370: ccb9 8d3e e13f 96bd 188f 67be 1474 433e
00000380: 25a0 233e 7ca5 9a3d 6c9f 9b3e a9b1 123e
00000390: 9347 abbc db3b 60bd d58b 5a3e 78bc 8c3e
000003a0: 4e78 f4bd 051f 123c df0c b0bd 47d9 973d
000003b0: 13a2 183e 5145 b13d 10e6 3abe f219 a2be
000003c0: de39 67be 37d1 8ebe bf77 38be 6cdb 09be
000003d0: 98ed 6e3d 3f66 3fbe d29e 8bbe 3489 8b3d
000003e0: 4abc 403e 4831 76be 5575 213d 70f9 303d
000003f0: eb44 c73c bf92 bfbc 0cab 20bd f71a 363e

fc1.bias f4 [64]
-0.20682223 0.14874956 -0.21117187 0.1334711 0.14864558 0.002933458 -0.012503076 -0.3287601
0.34044072 -0.11840425 0.007885764 0.12314391 -0.2746743 0.011842626 -0.25177303 -0.006899812
0.002797127 -0.06207503 0.20890482 0.2817332 -0.23461586 -0.20372716 -0.21046442 0.1870444
0.088681936 0.22557057 0.25580388 -0.24695769 -0.058870386 0.07278887 -0.16693428 0.026869431
-0.15264173 -0.23511384 0.14868215 0.08815307 -0.11832369 0.17159589 0.20107776 0.20527557
-0.3280772 -0.33954412 0.23318301 -0.061594814 0.28610966 0.042906135 -0.22575997 0.012531983
-0.050459914 -0.104645595 0.23824583 -0.30839756 0.12860529 0.29188025 0.09945485 -0.08549665
0.20974389 0.23246959 -0.23325947 -0.04921267 0.15881993 -0.17956793 -0.12536176 0.20630306
00000000: 35c9 53be ce51 183e 703d 58be a6ac 083e
00000010: 8c36 183e 423f 403b b4d9 4cbc 3e53 a8be
00000020: 3f4e ae3e ed7d f2bd 4b33 013c e032 fc3d
00000030: 1ca2 8cbe 9307 423c 65e8 80be d117 e2bb
00000040: 0150 373b 6342 7ebd 25eb 553e 563f 903e
00000050: 243f 70be da9d 50be fc83 57be 9188 3f3e
00000060: e09e b53d f9fb 663e baf8 823e 7ae2 7cbe
00000070: 1322 71bd 5512 953d d2f0 2abe 481d dc3c
00000080: 1d4e 1cbe afc1 70be 2240 183e 9989 b43d
00000090: b153 f2bd d5b6 2f3e 54e7 4d3e c233 523e
000000a0: bcf9 a7be bad8 adbe 87c7 6e3e d84a 7cbd
000000b0: f77c 923e 58be 2f3d 9f2d 67be f252 4d3c
000000c0: 0eaf 4ebd 6e50 d6bd b7f6 733e 49e6 9dbe
000000d0: 1bb1 033e 5471 953e fcae cb3d de18 afbd
000000e0: 1ac7 563e 820c 6e3e 92db 6ebe 3a93 49bd
000000f0: b1a1 223e a8e0 37be d55e 00be 1c41 533e

fc2.weight f4 [1, 64]
-0.017961873 0.15114242 -0.0140402615 0.063712806 0.021852523 0.1338899 -0.013816769 -0.035559315
0.09958254 0.13665463 0.100393176 0.060814787 0.10238391 0.15593879 -0.07872646 0.088558085
0.12327003 -0.059102856 0.036612384 0.1351037 0.102678165 -0.078800455 0.09727278 0.0064621186
0.11770195 0.15808427 0.11063729 0.00026215613 -0.09335273 0.060786918 -0.117908604 -0.04023511
-0.07785602 -0.099468425 -0.036136314 0.008550469 0.06744779 0.022275727 0.1600441 0.10354462
-0.05061559 -0.07172202 -0.027879115 0.035888784 0.04935424 0.025106803 -0.058682296 0.014248539
0.13853249 0.10580279 0.14697118 0.006970835 -0.038518053 0.07238614 0.11300323 -0.0988688
-0.029893912 -0.0406701 0.10450336 0.09085629 0.15732567 -0.08823556 0.1680428 0.06485586
00000000: c724 93bc 14c5 1a3e 2009 66bc dc7b 823d
00000010: 1004 b33c 6f1a 093e bb5f 62bc a5a6 11bd
00000020: eef1 cb3d 31ef 0b3e f09a cd3d ed18 793d
00000030: a8ae d13d 6bae 1f3e 573b a1bd f15d b53d
00000040: ff74 fc3d d615 72bd def6 153d a058 0a3e
00000050: ee48 d23d 2262 a1bd f436 c73d 2ec0 d33b
00000060: b80d f13d d8e0 213e ce95 e23d 0072 8939
00000070: b72f bfbd b4fb 783d 117a f1bd 92cd 24bd
00000080: fa72 9fbd 1ab6 cbbd ac03 14bd 4417 0c3c
00000090: 1122 8a3d 967b b63c 9ae2 233e 340f d43d
000000a0: 4b52 4fbd ffe2 92bd be62 e4bc 1e00 133d
000000b0: ac27 4a3d c8ac cd3c d95c 70bd b472 693c
000000c0: 76db 0d3e 22af d83d 9d7f 163e 9a6b e43b
000000d0: 1bc5 1dbd 2f3f 943d 3d6e e73d ba7b cabd
000000e0: 14e4 f4bc b195 26bd dc05 d63d dd12 ba3d
000000f0: fb19 213e d8b4 b4bd 6913 2c3e 26d3 843d
