backend/demo-machine-learning/Classification/models/neural_net_classifier.pth (torch, 5929 bytes, 4 tensors)

fc1.weight f4 [64, 10]
000000 76 45 3a 3e 5d 37 bd 3d ee aa c5 bd f8 04 45 be
       0.1819056 0.09239075 -0.09651743 -0.19240177
000010 44 d6 a2 be ad 2f 87 3e 7a bd 54 3e 3b 8c 2d be
       -0.31804097 0.2640356 0.20775405 -0.16948025
000020 ec 18 20 3e c7 e0 38 3e d1 2d 34 be 35 63 d6 3d
       0.15634507 0.18054496 -0.17595603 0.10468141
000030 9f 25 03 3e 1e 71 9d bc 5f 64 30 bd a8 90 91 bc
       0.1280732 -0.019218978 -0.04306447 -0.017769173
000040 ca e0 44 be 7b 8e 82 3e 39 7f a6 3e a1 c0 82 be
       -0.19226375 0.2549933 0.32518938 -0.2553759
000050 b1 85 30 3e 59 f8 09 3e cf fe 3d be 9a 4f 3a ba
       0.17238499 0.13473643 -0.18554233 -0.00071071985
000060 e7 c6 c9 3d 16 0e 73 3e ee 33 a0 3b 41 40 bf 3d
       0.09852391 0.23735842 0.004889003 0.09338427
000070 8f da 27 be 88 be 48 3c 78 24 1e bd 0a 85 44 3e
       -0.16391967 0.012252457 -0.038608998 0.19191375
000080 e1 37 92 3e 60 38 23 bd fd 2e a0 be 94 e0 eb 3d
       0.28558257 -0.039848685 -0.3128585 0.11517444
000090 92 bc 56 be 03 a8 9f be aa 4d 46 be 18 be 1c 3d
       -0.20970371 -0.3118287 -0.19365564 0.038267225
0000a0 c1 8e 09 3e f8 c2 57 be 71 7f 14 3e 47 1d 8c 3e
       0.13433363 -0.21070468 0.1450174 0.27366087
0000b0 de 15 06 3e 19 f1 39 3e fe 51 c6 3d 64 15 82 bc
       0.13094279 0.18158378 0.096836075 -0.01587934
0000c0 5c 24 fb bd de d5 86 be 9f ff 30 3e 3f 4b 79 3e
       -0.122627944 -0.26335043 0.17285012 0.2434511
0000d0 4d 32 63 be f3 1c 65 be b9 62 99 be a9 76 67 be
       -0.22187157 -0.22374325 -0.29958132 -0.22603859
0000e0 5b 05 c0 3d 01 29 94 3d dd e3 b3 3c 7b 66 91 3e
       0.093760215 0.072343834 0.02195924 0.283985
0000f0 09 54 94 be 8c 0c 86 3d a3 95 83 3e 4d e4 f6 3d
       -0.28970364 0.06545362 0.257001 0.12055264
000100 06 59 59 be 67 c5 1d 3e 28 28 11 be 37 3f 28 3e
       -0.21225366 0.15407334 -0.14175475 0.16430365
000110 32 19 61 3e 76 e2 96 3e 22 7d 86 bd 86 fb 1e bd
       0.21982267 0.2946965 -0.06566836 -0.03881409
000120 ef d9 8b 3e 8f 1a 77 3e b7 56 35 3e 5e f4 5b be
       0.27314708 0.24131225 0.1770886 -0.21479937
000130 e3 43 8f be 00 8b 26 bd 43 83 90 be a1 88 82 3e
       -0.2798148 -0.040659904 -0.28225145 0.25494865
000140 58 03 9f 3d ed 0c cd bd 6c db 94 3d d7 b9 1a be
       0.0776431 -0.10012231 0.07268414 -0.15109955
000150 b4 4f 16 3e 17 45 2f 3d 14 68 82 be 44 ff 5d be
       0.14678842 0.0427905 -0.2547003 -0.21679407
000160 ab 98 97 3e 18 af 8c be 95 c0 8a 3e 31 b0 77 3d
       0.29608664 -0.27477336 0.27100053 0.060470764
000170 4e 06 cf 3d 22 f4 ab 3d 46 52 ef 3c 66 3f 0e be
       0.101086244 0.08396174 0.029214036 -0.13891372
000180 76 89 c2 3d fc c7 4d 3e 16 29 45 be 44 35 a5 3d
       0.09498875 0.20095819 -0.19253954 0.080668
000190 8d 70 28 be ab 20 a4 3d 22 fb 9b 3e d9 c5 4e be
       -0.16449185 0.080140434 0.30465037 -0.2019266
0001a0 b3 93 1a 3d 65 c3 90 be 70 e0 66 3b f0 df 92 3d
       0.037738513 -0.28274074 0.003522899 0.07171619
0001b0 25 c5 ad 3d c3 16 8b ba 26 b3 f9 bd e6 ad 22 3e
       0.08484868 -0.0010611642 -0.12192373 0.1588665
0001c0 28 6b 1e 3d 7d dd 29 be c0 c7 7c 3d 12 6f 0d 3e
       0.03867641 -0.16588397 0.061713934 0.13811901
0001d0 20 16 83 be 58 79 8c be 52 bb d0 bd 82 6f aa bd
       -0.25602818 -0.27436328 -0.101919785 -0.0832205
0001e0 cd 52 17 be a7 96 6f be 77 05 ca bd 48 04 8c 3e
       -0.1477768 -0.23397313 -0.098643236 0.27347016
0001f0 44 cd 53 3e 57 e1 28 be c6 e1 72 be c3 7b ba 3d
       0.20683771 -0.1649221 -0.23718938 0.09105637
000200 8c a9 69 bc 6b eb ac bc a2 d5 52 be ca 12 fa bd
       -0.0142616145 -0.02110835 -0.20589307 -0.12210615
000210 c8 86 76 3e ec 95 43 3d 70 37 9e be 33 c6 82 bd
       0.24074852 0.0477504 -0.3090167 -0.0638546
000220 49 d0 13 3d 70 bb bd 3d cc 46 3e 3e cc a1 f5 bb
       0.036087308 0.092642665 0.18581694 -0.0074960943
000230 f1 59 83 bd 1f af 9c be 25 33 34 3d 59 95 99 3d
       -0.06413639 -0.30602357 0.043994088 0.07499189
000240 12 42 f1 3d de 17 15 bd fe 4c 38 3e 44 b8 cd 3d
       0.1178018 -0.036399715 0.1799812 0.100449115
000250 29 3f 51 bc 35 7b 8c bc b0 6e 24 3e 3e bf ea bd
       -0.012771406 -0.017148593 0.16057849 -0.11462258
000260 53 57 1a 3d 7d 2e 54 3d 06 52 54 be 83 6a 74 3e
       0.037680935 0.051802147 -0.20734414 0.23868756
000270 76 2a 27 3e 9d 0a 3c 3e 0c cf 1d 3e fa 84 2b 3d
       0.16324791 0.18363424 0.15411013 0.041874863
000280 17 e8 32 3e a4 cf 67 3e 44 0f 7a be 9d 9e 23 be
       0.17471348 0.22637802 -0.24419886 -0.15978475
000290 88 23 f3 bd 20 e7 98 3e 78 1b 6a be c6 ac 98 be
       -0.118720114 0.29863834 -0.22862041 -0.29819316
0002a0 92 ef 8f be 27 07 92 3e cf cc 85 be 2e ae 4f 3e
       -0.28112465 0.28521082 -0.2613282 0.20281288
0002b0 2c 1a 21 be a2 4c 0b be b0 31 3d 3e e3 5c 89 3e
       -0.1573264 -0.13603452 0.18475986 0.2682868
0002c0 0e d7 81 bd e1 49 6b 3e 44 2c d8 3d fc 12 6b 3e
       -0.063398466 0.22977401 0.10555318 0.2295646
0002d0 da f5 5c 3e 92 36 39 be b1 dd 7f be f6 7e 53 be
       0.2157816 -0.18087223 -0.24986912 -0.206539
0002e0 0e 21 67 3d d6 99 b6 3d fd 50 9a 3d 90 60 ba bd
       0.056428008 0.089160606 0.075349785 -0.09100449
0002f0 c7 74 4b 3e f5 9d 73 3e 38 06 9b 3e fd 59 42 be
       0.19868766 0.23790725 0.30278182 -0.1897964
000300 40 43 7f 3d af e0 9f be d8 11 64 3e 96 5e 40 3e
       0.062319994 -0.31226107 0.22272432 0.18786082
000310 d9 cd 97 3e e0 00 9a be 29 b6 8e bb 20 51 6e 3e
       0.29649237 -0.30078793 -0.0043552113 0.23273134
000320 20 1b 92 3c de e4 9d bd 14 9c 02 3e f0 a9 d7 3c
       0.0178352 -0.077096686 0.12754852 0.02632615
000330 98 35 4f be 60 66 30 bc 26 0f b2 bd 9a 67 e8 bd
       -0.20235288 -0.010766596 -0.086942956 -0.113478854
000340 2d 39 12 be 58 be 6f 3d 76 15 8d be 6e f6 50 be
       -0.14279623 0.058531135 -0.27555436 -0.20406505
000350 89 e6 00 be 18 a2 44 be 96 e6 65 3e 80 75 36 bc
       -0.12587942 -0.19202459 0.22451243 -0.011136413
000360 ec 6a 71 be ac f4 88 be 8d 8b a0 3e 4c 03 86 be
       -0.23575944 -0.2674917 0.3135647 -0.2617439
000370 ab 7c 60 be 74 22 8c bd 1f 0d 26 bd c9 85 62 3e
       -0.21922557 -0.06842509 -0.040539857 0.22121347
000380 7e 4d 4e 3e ee 89 83 3e d3 66 5a 3d 72 5f 26 be
       0.20146748 0.2569117 0.053320717 -0.16247347
000390 38 58 54 3e 24 c3 8d be d6 c2 bb 3d d2 32 e6 bd
       0.20736778 -0.27687943 0.091680214 -0.11240162
0003a0 8f e9 72 3d 50 2e 51 3e cf 5f 6a bd d6 27 82 be
       0.05930477 0.20427823 -0.057220276 -0.25421017
0003b0 e0 02 89 3d 49 db 36 be 13 00 03 3e e8 34 85 3e
       0.066900015 -0.17857088 0.12792997 0.26016927
0003c0 b7 52 de 3c b8 90 04 3e 1b 17 71 3e e1 20 fa bd
       0.02713905 0.12945831 0.2354397 -0.122133024
0003d0 c0 e4 98 3d 9a fb 86 3e 77 49 44 3e da 6d 22 be
       0.074655056 0.26363832 0.1916865 -0.15862218
0003e0 5e e6 71 be 66 0c 81 bc 4f e0 a7 be 25 59 41 be
       -0.23623034 -0.015752982 -0.3278832 -0.18881662
0003f0 d3 d6 d1 3d 77 05 92 3e 72 49 86 bd 69 db 12 3e
       0.102460526 0.28519794 -0.06556977 0.14341511

fc1.bias f4 [64]
000000 68 28 8e 3e ff 3f e4 3d a1 27 57 be 28 69 5e be
       0.27765203 0.11145019 -0.21011211 -0.21719801
000010 5b 5a db 3d 2d c0 0d be 10 a2 5e 3c 32 1d 2e be
       0.10710593 -0.1384284 0.013588443 -0.17003325
000020 46 ae ce bd c5 63 80 bc 37 30 99 bd e1 fa 84 be
       -0.10091834 -0.015672574 -0.074798994 -0.25972655
000030 c3 da 88 bc e5 97 cb 3b a3 d8 17 3d bf 6d 10 3d
       -0.016705876 0.0062131756 0.037071835 0.035260912
000040 82 db dc 3d ef e4 1d 3e 0e 05 94 be a7 b1 48 be
       0.10784055 0.15419362 -0.28910106 -0.19599019
000050 ec 0b 50 be d3 9f 43 be 84 47 87 3e 16 9e 7a be
       -0.20317048 -0.19103937 0.2642175 -0.24474367
000060 a5 42 0f bd 46 1f 93 be 99 6c e5 bd 36 f6 04 3e
       -0.034975667 -0.28734797 -0.11202354 0.12984547
000070 1d 64 0a 3e 24 fe 99 bd f0 15 58 be a6 9b 4e 3d
       0.13514753 -0.075191766 -0.21102118 0.050441407
000080 4a 6f 43 3d ff de 8e 3e c9 b5 a4 bc 54 08 33 3b
       0.047713555 0.27904508 -0.020106213 0.0027318196
000090 e6 66 40 be 11 61 4c 3d 56 d3 6c be a5 b9 fc 3d
       -0.18789253 0.049897257 -0.23127493 0.123400964
0000a0 5e 4b c7 3d f8 2d 1d 3d 4e 85 08 be 34 b3 c5 bd
       0.09731172 0.038373917 -0.13332102 -0.09653321
0000b0 e4 ce 5c be aa 45 1a 3e 21 39 d9 3d 4e ce 19 bc
       -0.21563298 0.15065637 0.106065996 -0.009387566
0000c0 51 f7 37 be ce 23 e2 3d a4 7d 63 be 74 b4 49 3e
       -0.17965437 0.110419855 -0.22215897 0.19697744
0000d0 40 d9 b4 bb fb 36 85 3e 02 e1 52 be 55 fa 77 be
       -0.0055190623 0.2601851 -0.20593646 -0.24216588
0000e0 d6 1a 39 3e b0 c0 7e be 8c 46 1b 3e 2b 73 10 3e
       0.18076643 -0.24878192 0.1516363 0.14106433
0000f0 b0 60 24 3e fb 51 cb 3d 8a d5 f5 3d 80 0b e1 bd
       0.16052508 0.09927746 0.1200362 -0.109885216

fc2.weight f4 [2, 64]
000000 6c f2 62 3d 2e 75 76 3d 73 3d 95 bd 50 32 75 3c
       0.055406973 0.060170345 -0.07287111 0.014965609
000010 7f 3c b6 bd eb 26 82 bc 17 f6 e6 bd 69 7a 51 3c
       -0.088982575 -0.015887698 -0.11277407 0.0127855325
000020 0c dc 27 bd bd 55 01 bd 4d 8e 03 be 9a 25 ca bd
       -0.040981337 -0.031575907 -0.12847252 -0.09870453
000030 73 7e 4e bd 76 99 8f bd 3b 01 b0 bd ba b5 ed 3b
       -0.05041356 -0.07011692 -0.08593985 0.0072543295
000040 1f e0 96 3c ed 03 d6 3c d3 be e4 3d af a7 8d 3d
       0.018417416 0.026124919 0.11169209 0.06916749
000050 00 1a ed ba 90 d7 ec 3d 9d c2 2f bc 08 14 e1 bd
       -0.0018089414 0.11564553 -0.010727552 -0.10990149
000060 f0 c7 f0 bd 70 1a c0 bd aa 0b 8a bd db 3d 81 3d
       -0.11756885 -0.093800426 -0.06740506 0.06310626
000070 0e 89 c2 3c b8 d8 a7 bd 3e ff 99 bc cb b5 ca bd
       0.023746993 -0.08195633 -0.018798467 -0.098979555
000080 fe 1e 2d 3d bc e5 5d 3d 39 00 c9 3d 58 2a 2d 3c
       0.042265885 0.05417417 0.098144956 0.010569178
000090 ea 7a fe 3c 9e 3d f4 ba 15 b1 21 3d 43 b1 8a bc
       0.03106447 -0.0018634086 0.03947552 -0.016930228
0000a0 15 dc ce bd 9a 22 ae 3d 1f 41 b3 3d d0 6b bc 3d
       -0.10100571 0.085026935 0.08752655 0.09200251
0000b0 20 a6 21 3c d2 0c c4 bd 8f 84 43 bd 02 15 e6 bd
       0.009866267 -0.09572758 -0.04773384 -0.11234476
0000c0 a4 aa b4 3d d6 92 89 bd d4 27 cc bd 50 7f fa 3d
       0.088216096 -0.0671746 -0.09968534 0.12231314
0000d0 94 59 94 bd 89 fd 89 ba 60 6f 12 bd 9e 8b e7 3d
       -0.07243648 -0.001052783 -0.035750747 0.11305927
0000e0 c6 65 b1 3d d4 0a 8c 3d f7 1c 00 3e 64 41 ea bd
       0.0866199 0.06838003 0.12511049 -0.114382535
0000f0 78 de 41 bc cc df 9e bc 9d 3c 33 bd 4e 75 99 bd
       -0.011832826 -0.019393824 -0.043758977 -0.07493077
000100 97 2d 11 bd 4f c0 9e bd 6b 1b 73 3d b0 51 7e bc
       -0.03544387 -0.07751524 0.05935232 -0.0155224055
000110 f5 1c 0e bd 70 f3 f0 bd f7 19 9b bd 66 0b a6 3d
       -0.034695584 -0.11765182 -0.07573312 0.08107643
000120 68 77 30 bd b9 7e d6 bd e5 aa fe bb 00 0e 77 bd
       -0.043082625 -0.10473389 -0.007771837 -0.060316086
000130 f2 8c 52 3b 22 63 aa 3d 1f d2 a4 bd 56 8b 82 bd
       0.0032127467 0.08319689 -0.0804789 -0.063742325
000140 5f a4 cf bd eb 0a c9 3d 30 5a db ba 07 e8 01 3d
       -0.10138773 0.098165356 -0.0016735252 0.03171542
000150 c8 14 2c 3d d2 14 e1 bd 7a a3 d6 3d 4e 63 ec bc
       0.042012006 -0.10990299 0.104803994 -0.028855946
000160 ba b2 93 3c f3 4a 92 bd d2 bd 9e 3c 0b 19 6a 3b
       0.01802956 -0.07143202 0.019377623 0.0035720493
000170 e4 e2 9d bd f0 ed c8 3c a7 1b 3c bd d1 57 83 3c
       -0.077092916 0.02452752 -0.04592481 0.016033085
000180 8a 2b 12 bd a5 6f 89 3d 38 0f 04 3e 7b 27 cb bc
       -0.035686053 0.06710748 0.1289643 -0.0247991
000190 2f 42 35 bd 56 e6 9a 3d b2 71 21 3e de 81 c5 bd
       -0.04425257 0.07563464 0.15766028 -0.09643911
0001a0 c5 b4 ab 3d c0 ee 13 bd 41 06 fa 3d 3a 50 ec bd
       0.083840884 -0.03611636 0.12208224 -0.115387395
0001b0 b7 7f 13 bd b5 80 6f bc 97 9f b7 bc 70 eb ea bd
       -0.03601047 -0.0146180885 -0.022414966 -0.114706874
0001c0 d8 08 e7 3c 36 38 f0 bd e4 8d aa 3d f9 64 04 be
       0.02820246 -0.117294714 0.08327845 -0.12929143
0001d0 e6 03 98 3d 84 81 dc 3c b8 79 64 bd ac 73 c0 3d
       0.074226186 0.026917227 -0.055780143 0.09397063
0001e0 f8 c0 a7 bd a8 5f 86 bc 82 64 89 bd b8 8d 7c 3d
       -0.08191103 -0.016403034 -0.067086235 0.06165859
0001f0 9c f6 7b 3d 6d 38 fc bb 36 f9 9c 3c 48 d1 fd bd
       0.061514482 -0.007697156 0.019161802 -0.12393433

fc2.bias f4 [2]
000000 16 f4 85 bd bf 09 cd 3d
       -0.06540696 0.100116245
